lstm_model_v2.pth (torch, 176776 bytes, 6 tensors)

lstm.weight_ih_l0 f4 [400, 6]
0	0x3cfaa986	0.030598413
1	0x3db0d380	0.086340904
2	0xbc0c2714	-0.008554239
3	0xbcdb3535	-0.02675877
4	0xbd2ca9ec	-0.042154238
5	0x3ee3d856	0.4450099
6	0x3d19d9b2	0.037561126
7	0x3d041c6b	0.032253664
8	0x3de27367	0.110571675
9	0x3c160897	0.009157321
10	0x3c8c9c09	0.017164247
11	0xbdf57179	-0.11984534
12	0x3e24fdf4	0.161125
13	0x3dba8cb4	0.09108868
14	0xbcc69391	-0.024240287
15	0x3ce54929	0.027988987
16	0x3d74eac6	0.05979421
17	0x3dad9e49	0.08477456
18	0x3db2c89f	0.08729672
19	0x3d32f0cb	0.04368667
20	0x3a89f288	0.001052455
21	0x3cb9931b	0.022653153
22	0x3d05517f	0.032548424
23	0xbd4a8e86	-0.049452327
24	0x3e567a8e	0.20945188
25	0x3e1819f1	0.14853646
26	0x3e8f6677	0.28007862
27	0x3dbd5a3a	0.09245725
28	0x3e2c4573	0.16823368
29	0x3e200456	0.15626654
30	0xbc249423	-0.010045084
31	0x3d143530	0.036183536
32	0x3e353401	0.17695619
33	0x3d9173c9	0.071021624
34	0x3dbca3b4	0.092109114
35	0x3db20e2e	0.08694111
36	0x3df55c42	0.119804874
37	0x3e1bac5c	0.15202469
38	0x3e7491d5	0.23883756
39	0x3e7f8b3e	0.2495546
40	0x3e4c06b1	0.19924428
41	0x3ea031e3	0.3128806
42	0x3c4151c6	0.011799281
43	0x3da12d01	0.07869912
44	0x3cf6e328	0.030137613
45	0x3bc26c73	0.0059333383
46	0x3ca61cf1	0.020277472
47	0x3d67538e	0.05647617
48	0x3dcef8b5	0.10106031
49	0x3e089b22	0.13340428
50	0x3c853cd3	0.016264355
51	0x3cea140f	0.028574018
52	0xbd218468	-0.039432913
53	0xbd22508c	-0.039627597
54	0x3e8fbbdc	0.28073013
55	0x3e78ddc9	0.24303354
56	0x3eadf7f7	0.33978245
57	0x3e8245d3	0.25443897
58	0x3e4eb0bc	0.20184606
59	0x3f1ce053	0.6127979
60	0xbd3dc1da	-0.04632745
61	0x3d939c04	0.07207492
62	0x3d701d1b	0.058621507
63	0x3d1c0790	0.03809315
64	0xbd54c2fa	-0.051943757
65	0x3ce4e268	0.02793999
66	0xbd23e8e6	-0.04001703
67	0x3e0bd209	0.13654341
68	0x3e419aba	0.1890668
69	0xbcd7d3a3	-0.026346033
70	0x3d8eb0e5	0.06967334
71	0xbd6f5181	-0.058427338
72	0x3d89032f	0.0669006
73	0x3dca119f	0.09866642
74	0x3de39518	0.11112422
75	0x3e051b02	0.12998584
76	0xbcc511bb	-0.024056306
77	0xbd28b93e	-0.041192286
78	0xbdd42e47	-0.10360389
79	0x3d81fc25	0.06346921
80	0x3e305572	0.17220095
81	0xbda67c9b	-0.08129235
82	0xbda8a3e2	-0.08234383
83	0xbd884c1e	-0.06655143
84	0x3dcff5b4	0.10154286
85	0x3e08aff3	0.1334837
86	0x3d468fff	0.04847717
87	0x3c87a152	0.016556416
88	0x3d8df9fd	0.06932447
89	0x3db8d0e1	0.090242155
90	0x3cd48df4	0.025946595
91	0xbdb61e59	-0.08892507
92	0x3d7453f0	0.05965036
93	0x3dd68ac2	0.10475685
94	0x3c8d3a53	0.017239725
95	0x3e3abb0e	0.18235418
96	0x3d241b8b	0.04006533
97	0x3daa45d5	0.08314101
98	0x3d49fbeb	0.049312513
99	0x3cc4f649	0.02404322
100	0x3de6a880	0.112626076
101	0xbc251cbc	-0.010077652
102	0xbc1e9b1d	-0.009680537
103	0x3dabe20c	0.083927244
104	0x3d06e4fd	0.032933224
105	0x3e128799	0.14309539
106	0x3dc39294	0.09549442
107	0x3ea68c85	0.32529083
108	0x3dd7841b	0.10523244
109	0x3d97faf1	0.0742091
110	0x3e4afece	0.19823763
111	0x3db2cfd6	0.08731048
112	0xbbd90c9c	-0.0066238176
113	0x3f0dd1c6	0.55398214
114	0x3de5a45d	0.112129904
115	0xbd566d94	-0.052350596
116	0x3dfb2a72	0.12263955
117	0x3ccba5a7	0.024859263
118	0x3dfa1e75	0.122128405
119	0x3dfdb200	0.123874664
120	0xbd57dd2d	-0.052701164
121	0x3b5a3419	0.0033295213
122	0x39abdb9a	0.00032779278
123	0x3d865384	0.06558898
124	0xbd33d303	-0.04390241
125	0x3d939216	0.07205598
126	0x3d59f88f	0.05321556
127	0x3d86b78a	0.06577976
128	0x3cd59ebd	0.026076669
129	0x3dbdc1ae	0.09265457
130	0x3d109357	0.035296764
131	0x3e128618	0.14308965
132	0xbbbda16e	-0.005787066
133	0x3d2e7c94	0.042599276
134	0x3e05ad09	0.13054289
135	0xbc5f5288	-0.013630517
136	0xbd085594	-0.03328474
137	0x3d2cb203	0.042161953
138	0x3dac57c9	0.08415181
139	0x3e34dd65	0.1766258
140	0x3e2fbdbf	0.17162226
141	0x3e782426	0.2423254
142	0x3d98f37a	0.074683145
143	0x3ee3360c	0.44377172
144	0x3d962c2e	0.07332645
145	0x3cff7fa2	0.03118879
146	0x3d35d865	0.044395823
147	0x3e053487	0.13008319
148	0xbca4c27a	-0.020112265
149	0x3e048368	0.12940753
150	0x3d3e1c45	0.04641368
151	0xbdc07140	-0.09396601
152	0x3cb5e421	0.022203507
153	0xbca1058d	-0.019655967
154	0xbc77452c	-0.015092175
155	0x3e3f1a69	0.18662418
156	0x3d9cb552	0.076517716
157	0x3df342e7	0.11877995
158	0x3da19b63	0.07890966
159	0xbdbb3a9f	-0.091420405
160	0xbd745a9b	-0.05965672
161	0xbd1b3c39	-0.03789923
162	0xbd97814d	-0.07397709
163	0x3d00bcb8	0.031429976
164	0xbd8f0989	-0.069842406
165	0x3cd5d86d	0.026104176
166	0xbd4f00ea	-0.05053798
167	0x3e6a893d	0.22903915
168	0x3c8e4e52	0.01737133
169	0x3d84f760	0.064924955
170	0x3d103227	0.03520408
171	0xbad71caa	-0.0016411741
172	0x3c6417e1	0.013921709
173	0x3e02295e	0.12711093
174	0x3d582d3a	0.052777506
175	0x3deaa85d	0.11457894
176	0x3e63a1e0	0.22229719
177	0xbd8d6a53	-0.06905045
178	0x3c82ba83	0.015958076
179	0x3d020508	0.03174308
180	0x3edeb38f	0.43496367
181	0x3ea2f51e	0.31827635
182	0x3ef5aa1f	0.47981355
183	0x3e6ebb12	0.23313549
184	0x3e9e2eec	0.30895174
185	0x3ee328c1	0.4436703
186	0x3e40d474	0.18831044
187	0x3e782d92	0.24236134
188	0x3e72a680	0.23696327
189	0x3e9df4b2	0.3085075
190	0x3e07da0a	0.13266769
191	0x3f31e0c0	0.69483566
192	0x3da92e53	0.08260789
193	0xbd97458e	-0.073863134
194	0xbbb8433e	-0.0056232503
195	0xbdda4af4	-0.106588274
196	0xbdb740ba	-0.089478925
197	0xbc4f964f	-0.012670114
198	0xbdd90e6d	-0.105984546
199	0xbdc6d9bd	-0.09709499
200	0x3d42e90b	0.04758553
201	0x3d130b41	0.035899404
202	0xbdee1e66	-0.11626892
203	0x3da9b82e	0.082870826
204	0x3c0fdff5	0.008781423
205	0x3d5ef39e	0.05443155
206	0x3df31de0	0.118709326
207	0x3dd5edb6	0.104457304
208	0x3cb97e65	0.022643277
209	0x3c6de12b	0.014519016
210	0xbc9a3519	-0.018824147
211	0x3d10badc	0.035334453
212	0x3d3b7236	0.045763217
213	0x3da1a3e5	0.078925885
214	0xbdaa6367	-0.08319741
215	0x3ebc84f5	0.36820188
216	0xbcc8c9dd	-0.024510318
217	0x3d9cb5dd	0.07651875
218	0x3ca4169d	0.020030314
219	0x3cf1c81e	0.029514369
220	0x3bcac8ff	0.0061885114
221	0x3d08a4cd	0.03336029
222	0x3d86d295	0.06583134
223	0x3dd6ad46	0.10482268
224	0x3ca4e6cf	0.02012959
225	0xbd07e2ce	-0.033175282
226	0xbd53eba5	-0.0517384
227	0x3dfb113d	0.12259147
228	0x3bc26bb0	0.0059332475
229	0x3c623954	0.013807613
230	0x3dbece3e	0.09316681
231	0xbc98a5fa	-0.018633831
232	0x3d3ff23f	0.046861883
233	0x3de2d853	0.11076417
234	0x3cf5c23e	0.029999848
235	0x3e1ca226	0.1529623
236	0x3e1ffd4a	0.15623966
237	0x3c7a069c	0.015260365
238	0xbd358c33	-0.044323158
239	0x3ddb4da6	0.1070817
240	0x3de9b010	0.114105344
241	0x3d1b80bf	0.03796458
242	0x3daaacd6	0.08333747
243	0xbb103ad3	-0.0022007718
244	0x3dde1a8e	0.10844909
245	0x3e366402	0.17811587
246	0xbd54dd5c	-0.051968917
247	0xbd26dd74	-0.040738538
248	0x3d499678	0.049215764
249	0xbd38b80c	-0.045097396
250	0x3d30ed06	0.043194793
251	0x3ec689cf	0.38777015
252	0xbdf34676	-0.11878674
253	0xbc896a18	-0.016774222
254	0xbce80b6b	-0.028325757
255	0xbd948bd1	-0.0725323

lstm.weight_hh_l0 f4 [400, 100]
0	0xbd0de116	-0.034638487
1	0xbe03b4ae	-0.12861893
2	0xbe319c0f	-0.17344688
3	0x3d45c3e3	0.048282515
4	0xbd90ab8d	-0.07063971
5	0x3d840517	0.06446283
6	0xbdb72038	-0.08941692
7	0x3df059e1	0.11735893
8	0xbd569287	-0.052385833
9	0xbe1f4e9a	-0.15557328
10	0xbdbd9c7f	-0.09258365
11	0xbc46abd4	-0.012125928
12	0x3da5bf81	0.08093167
13	0xbd6f59d4	-0.058435276
14	0x3d1fb3e1	0.038989905
15	0x3ca7b8d9	0.020473884
16	0xbd630739	-0.05542681
17	0xbd5db00b	-0.054122966
18	0xbc3fcc81	-0.011706472
19	0x3da5322c	0.0806621
20	0xbca12188	-0.01966931
21	0x3c8d1f5f	0.017226873
22	0x3db3dc67	0.08782273
23	0x39aac3b8	0.0003257075
24	0xbcad7f91	-0.021178992
25	0xbcc20b84	-0.023687132
26	0x3c92c1ea	0.017914731
27	0x3d20750f	0.039174136
28	0x3d86b1aa	0.065768555
29	0xbd4f7bd3	-0.050655197
30	0xbd470410	-0.04858786
31	0x3d5483ce	0.05188351
32	0x3c966dd9	0.018362926
33	0xbdfb0bac	-0.122580856
34	0x3d1d1054	0.03834565
35	0xbd295255	-0.041338284
36	0xbca81bc5	-0.020521054
37	0x3d932810	0.07185376
38	0xbd612ff9	-0.05497739
39	0xbdd77170	-0.10519683
40	0xbb90d756	-0.0044202013
41	0xbc0c357e	-0.008557675
42	0xbc9baef8	-0.01900433
43	0x3d31443b	0.04327796
44	0x3d44dfe7	0.048065092
45	0x3dd50b09	0.104024954
46	0xbda35481	-0.07975102
47	0xbd0fc091	-0.035095755
48	0x3da508b2	0.08058299
49	0x3c777538	0.015103631
50	0xbdaf8226	-0.08569746
51	0xbe134a0e	-0.14383718
52	0xbd01b023	-0.031662118
53	0xbdea9d14	-0.114557415
54	0x3d9c4f52	0.07632317
55	0xbcdaac55	-0.026693502
56	0x3e08c970	0.13358092
57	0x3e0049b1	0.12528111
58	0xbdc4667b	-0.09589859
59	0xbcdc6874	-0.026905276
60	0x3ca83dc8	0.020537272
61	0x3e0f0201	0.13965608
62	0xbda32950	-0.07966864
63	0x3d9364a8	0.07196933
64	0x3da41310	0.080114484
65	0x3c68f8ba	0.014219457
66	0xbda10a4a	-0.078632906
67	0xbdfbe8f9	-0.123002954
68	0x3d94adbf	0.07259702
69	0xbd172119	-0.0368968
70	0xbdaa88b0	-0.08326852
71	0x3d07441a	0.03302393
72	0x3d86f261	0.06589199
73	0xbd99c04b	-0.0750738
74	0xbe0c78c0	-0.13717937
75	0x3cbcded2	0.023055468
76	0xbbb8308d	-0.005621022
77	0x3d520bbb	0.05128072
78	0x3c613e6d	0.013747794
79	0x3e0c9144	0.1372729
80	0xbadfe912	-0.001708301
81	0xbe15b3fa	-0.14619437
82	0xbc9c3b5d	-0.019071275
83	0xbd20d56c	-0.039266035
84	0xbd9d9e0c	-0.07696161
85	0x3d94838e	0.072516546
86	0xbd2611a5	-0.04054417
87	0x3cf3031a	0.029664565
88	0xbbd71a81	-0.006564439
89	0x3d96bcbf	0.07360219
90	0xbc2ce241	-0.01055199
91	0xbe0b9e93	-0.1363471
92	0xbd8a64be	-0.06757496
93	0xbc388357	-0.011261783
94	0xbcd12011	-0.025527986
95	0x3d031191	0.031999175
96	0x3db17f65	0.08666877
97	0xbd2bbc55	-0.041927654
98	0x3d836363	0.06415441
99	0xbd8cfb9e	-0.0688393
100	0x3be59194	0.0070058797
101	0x3d27377b	0.040824395
102	0xbc67a4af	-0.014138385
103	0x3d07f42d	0.03319185
104	0xbbc0fa0d	-0.0058891834
105	0x3ba8e5bf	0.005154341
106	0xbd94b72a	-0.07261498
107	0x3d91b066	0.071137235
108	0xbd430eee	-0.04762166
109	0xbdaac4c6	-0.08338313
110	0xbdaf8481	-0.08570195
111	0xbd949bb4	-0.072562605
112	0x3da91664	0.08256224
113	0x3c210078	0.009826772
114	0xbcf696a8	-0.030101135
115	0xbda2bc4d	-0.07946072
116	0x3ca41d32	0.020033453
117	0xbdc3e7e2	-0.095657125
118	0xbda37d02	-0.07982828
119	0xbdd10e21	-0.10207773
120	0xbd4d1c2b	-0.05007569
121	0x3ca2b7ce	0.019863036
122	0x3daabb18	0.083364666
123	0xbc887b60	-0.016660392
124	0xbdbe76ad	-0.09299979
125	0xbdb994f6	-0.09061615
126	0x3d81ab5a	0.06331511
127	0xbd94f950	-0.07274115
128	0xbdb3495d	-0.08754227
129	0x3d2780bd	0.04089426
130	0xbda96f7d	-0.08273218
131	0x3d27d573	0.040975045
132	0xbd286425	-0.04111113
133	0xbdc76428	-0.097359
134	0xbd8d359d	-0.068949915
135	0xbc2e9635	-0.010655929
136	0x3e182095	0.14856179
137	0xbdb222f6	-0.086980745
138	0xbcd0b1ba	-0.025475372
139	0x3cbb2721	0.022845807
140	0xbdeef460	-0.116677046
141	0xbd8b2ffa	-0.0679626
142	0x3dee63ec	0.11640152
143	0x3d1d7094	0.03843744
144	0xbdd1b8d9	-0.10240335
145	0x3c9c050e	0.019045379
146	0xbd1e190f	-0.038598116
147	0xbd7a1258	-0.06105265
148	0x3d91b1de	0.071140036
149	0xbd8e6e94	-0.06954685
150	0xbdbe6dfa	-0.0929832
151	0x3c925443	0.017862445
152	0x3a4be94a	0.0007778598
153	0x3caf8268	0.021424487
154	0xbd951e0c	-0.072811216
155	0xbdf845d3	-0.12122693
156	0x3ced197b	0.028942814
157	0xbdabb82e	-0.08384739
158	0x3daa0089	0.08300883
159	0xbce8e5d0	-0.028429896
160	0xbc912838	-0.017719373
161	0x3d88583d	0.06657455
162	0x3da9ee2a	0.08297379
163	0x3da78b68	0.081808865
164	0x3da3576c	0.07975659
165	0x3d22e37b	0.039767724
166	0x3df19958	0.11796826
167	0xbd3107bf	-0.043220278
168	0x3da578ae	0.080796584
169	0xbdaf5aec	-0.08562264
170	0x3d8fedd7	0.07027786
171	0x3d8a686a	0.06758197
172	0x3d5c0a57	0.0537208
173	0xbd89f30a	-0.06735809
174	0xbdb2d3a9	-0.08731777
175	0x3d9ea572	0.077464
176	0xb9a079b0	-0.00030608242
177	0xbd4fe20d	-0.05075269
178	0xbdbdf5e3	-0.09275415
179	0xbd3c0274	-0.045900777
180	0x3de2bbd2	0.1107098
181	0xbdfa9455	-0.12235323
182	0xbdb3ddcc	-0.08782539
183	0xbd9046df	-0.070447676
184	0x3d4a013b	0.04931758
185	0x3b5f6419	0.0034086762
186	0x3d56e5db	0.0524653
187	0x3d8ac441	0.06775714
188	0xbc323468	-0.010876752
189	0x3d92e985	0.071734466
190	0xbd697ffa	-0.057006814
191	0xbddc7868	-0.10765153
192	0xbd107bd8	-0.035274357
193	0x3d76dce4	0.06026925
194	0x3d7b054a	0.06128434
195	0xbdc41bba	-0.09575601
196	0xbd98bb28	-0.07457572
197	0xbd7a2535	-0.06107064
198	0x3c5c9d5e	0.013465254
199	0xbdc95fbf	-0.09832715
200	0xbcf0965d	-0.029368574
201	0x3d11647b	0.035496216
202	0xbe065bff	-0.13121031
203	0x3d0a345e	0.033741347
204	0xbdaa0184	-0.0830107
205	0x3d8eb8d5	0.06968848
206	0xbdfdc210	-0.1239053
207	0xbc833301	-0.016015531
208	0xbdc81cde	-0.09771131
209	0xbca8a905	-0.020588407
210	0xbd59f751	-0.053214375
211	0xbb07fbbc	-0.002074941
212	0x3c5f052a	0.013612071
213	0xbddf7845	-0.109116115
214	0xbda91c4f	-0.082573526
215	0x3d60663e	0.054785006
216	0xbdff88c0	-0.12477255
217	0xbd51e51e	-0.051243894
218	0xbde0c63c	-0.1097531
219	0x3d81abb1	0.06331576
220	0xbcfdd488	-0.030985132
221	0x3da6aedb	0.0813882
222	0x3d46a074	0.048492864
223	0x3d80d745	0.062910594
224	0xbda3f5a4	-0.080058366
225	0xbd2e9b15	-0.042628367
226	0x3ce0c520	0.027437747
227	0xbda4474d	-0.08021412
228	0x3d5d69f5	0.054056127
229	0xbc880b51	-0.016606959
230	0xbc01c9a2	-0.007921608
231	0xbde7cced	-0.11318383
232	0x3d3e68a8	0.046486527
233	0xbc61c892	-0.01378073
234	0x3d72db10	0.059290946
235	0xbd654208	-0.055971175
236	0xbbc78eb9	-0.006090012
237	0xbdb29672	-0.087201014
238	0xbde0f11c	-0.10983488
239	0xbc556fe5	-0.013027166
240	0x3d2dd596	0.04244002
241	0xbb40bf00	-0.002941072
242	0x3d868f09	0.065702505
243	0x3d5fca69	0.054636393
244	0xbdc5bff3	-0.09655752
245	0x3dcd20c0	0.10016012
246	0x3d5a9be8	0.05337134
247	0xbc874f5c	-0.016517334
248	0x3d30dcbd	0.043179262
249	0xbbbc85c3	-0.0057532503
250	0xbca6ebad	-0.02037605
251	0xbd484daa	-0.04890219
252	0xbd857ce0	-0.06517959
253	0x3bbd09f7	0.00576901
254	0xbdbcf7a1	-0.09226919
255	0x3ba777f8	0.005110737

lstm.bias_ih_l0 f4 [400]
0	0x3e0c2549	0.13686098
1	0x3dc25e2e	0.094906196
2	0xbc2f2eff	-0.010692357
3	0x3dc29c16	0.09502427
4	0x3e2c0085	0.16797073
5	0x3c8ca156	0.017166775
6	0x3e5bee59	0.21477641
7	0xbd5c9a32	-0.05385799
8	0xbd269f8e	-0.040679507
9	0x3ea44e58	0.32091022
10	0xbdc478ec	-0.095933765
11	0xbd809a79	-0.06279463
12	0xbc8de143	-0.017319327
13	0x3d50480e	0.050849967
14	0x3dcdec53	0.10054841
15	0xbc9106cb	-0.017703434
16	0x3caf184e	0.021373894
17	0x3c6497bf	0.013952195
18	0x3df88dc3	0.12136414
19	0x3d28fa84	0.041254535
20	0xbd8409d0	-0.06447184
21	0x3d23b563	0.039967906
22	0xbd52f4bf	-0.05150294
23	0x3d9d9952	0.07695259
24	0x3d5491a1	0.051896695
25	0xbdaf8f56	-0.08572261
26	0x3b81d870	0.003962569
27	0x3dc32c82	0.095299736
28	0xbd9776bb	-0.07395693
29	0xbcae165f	-0.021250902
30	0x3e6ac72a	0.22927538
31	0x3ebc9fcb	0.36840662
32	0x3d724c74	0.059154943
33	0xbc6f5b32	-0.014609145
34	0x3dbd4182	0.0924101
35	0x3dcccdb3	0.100001715
36	0x3c6e15ad	0.014531535
37	0xbc7c02aa	-0.015381495
38	0xbb9d899b	-0.0048076636
39	0x3c3588ac	0.011079948
40	0x3d931a16	0.0718271
41	0x3da68dbb	0.08132502
42	0xbbf3af25	-0.0074366503
43	0x3c2dfe0d	0.010619652
44	0x3d5ab89e	0.05339872
45	0xbad06609	-0.001589955
46	0x3d34c9a4	0.044137612
47	0x3d225b3b	0.039637785
48	0x3d7f20cc	0.062287137
49	0x3dbe6e2e	0.09298359
50	0xbcd09e97	-0.025466247
51	0x3def170e	0.11674319
52	0x3d93f215	0.07223908
53	0x3cb89e15	0.022536317
54	0xbb895b59	-0.0041917977
55	0x3d3850cf	0.04499894
56	0x3de337a7	0.11094599
57	0x3d396dff	0.045270916
58	0x3b852520	0.0040632635
59	0xbc9ccdde	-0.019141134
60	0x3c3063fc	0.010766026
61	0x3d814247	0.063114695
62	0xbdb2122e	-0.08694874
63	0x3b8d3b17	0.0043100226
64	0x3de40443	0.11133625
65	0x3cf7e941	0.030262591
66	0x3da3484e	0.079727754
67	0x3caf2d36	0.021383863
68	0x3c912ae2	0.017720643
69	0xbd9fe16a	-0.07806666
70	0xbae166ff	-0.0017196833
71	0xbd8581eb	-0.065189205
72	0xbd4f2af6	-0.05057808
73	0x3e81d113	0.25354823
74	0x3ca4e548	0.020128861
75	0xbcb52ecc	-0.022117041
76	0x3d50d927	0.050988343
77	0x3bd1a7a5	0.0063981586
78	0x3ddf0759	0.10890073
79	0xbc2ceb5c	-0.010554161
80	0xbcc51c11	-0.024061235
81	0x3de247d7	0.110488586
82	0x3e5116a4	0.20418793
83	0x3dba427a	0.09094711
84	0x3db7f20b	0.08981713
85	0xbc31e340	-0.010857403
86	0xbc7e77f7	-0.015531532
87	0x3e4f5ea3	0.20250945
88	0xbc00c75e	-0.007860033
89	0x3d186f04	0.037215248
90	0x3d554a1b	0.052072626
91	0x3cbdd209	0.023171442
92	0x3c32ac6a	0.0109053645
93	0xbd5f0537	-0.054448333
94	0x3d8ed72f	0.06974637
95	0xbd8c9b45	-0.06865553
96	0x3dee1c4c	0.11626491
97	0x3e2172cb	0.15766446
98	0x3de7bd31	0.11315382
99	0xbd73a741	-0.059485678
100	0x3d84f0f1	0.064912684
101	0xbd64225c	-0.05569683
102	0xbbe03d7f	-0.0068432684
103	0xbdc43902	-0.09581186
104	0xbe1d058d	-0.15334149
105	0x3dd7f777	0.10545247
106	0xbdb9420e	-0.09045802
107	0xbdad0399	-0.08447952
108	0x3d027a2b	0.03185479
109	0x3ca59243	0.020211345
110	0xbdb143c3	-0.08655503
111	0xbdbdefa8	-0.092742264
112	0x3c83a8f4	0.016071774
113	0x3d36a4b4	0.044590667
114	0x3d2b72bc	0.041857466
115	0x3de4ab22	0.111654535
116	0xbd24aadf	-0.040202018
117	0xbbadcc09	-0.005303864
118	0x3e1e7e26	0.1547781
119	0x3db32e6d	0.087490894
120	0x3d84d379	0.06485648
121	0x3d143f34	0.036193088
122	0xbdb7af6f	-0.08969008
123	0xbca1844b	-0.019716403
124	0xbc1a46e6	-0.009416318
125	0x3cf04a82	0.029332403
126	0x3d426ff3	0.047470044
127	0x3d0418fb	0.032250386
128	0x3d1bada1	0.038007382
129	0x3cc5aad9	0.024129318
130	0xbe7f3a64	-0.24924618
131	0x3dd3d3c2	0.10343124
132	0x3dae10cd	0.08499298
133	0x3d3dd06c	0.046341345
134	0x3d57dd03	0.052701008
135	0xbd88bf0d	-0.06677065
136	0x3d63a70e	0.055579238
137	0x3daa71e4	0.08322504
138	0x3c9257cc	0.01786413
139	0x3c7c4503	0.015397313
140	0xbd9e2321	-0.07721544
141	0xbd380ca1	-0.04493392
142	0xbd628c6d	-0.0553097
143	0x3c33a6dc	0.010965075
144	0xbcb43d88	-0.022001997
145	0xbdd44628	-0.10364944
146	0x3b92ebbb	0.0044836677
147	0xb996f118	-0.00028789858
148	0xbd733306	-0.05937483
149	0xbd0a51fa	-0.033769585
150	0x3d0a27ef	0.03372949
151	0x3da20bf7	0.07912438
152	0x3df5c808	0.120010436
153	0xbd164dcc	-0.036695287
154	0x3c29d27e	0.010365127
155	0xbe2d5141	-0.16925527
156	0xbcd4d150	-0.025978714
157	0x3d9c98f0	0.07646358
158	0x3c6883f8	0.01419162
159	0x3db72757	0.0894305
160	0xbd78f1f9	-0.060777638
161	0xbd825754	-0.06364313
162	0xbcd734e3	-0.026270336
163	0x3c6453f5	0.013936033
164	0x3e0bcce8	0.13652384
165	0x3d83e686	0.06440453
166	0xbd399c77	-0.045315232
167	0xbd8210a9	-0.06350834
168	0x3c3a43b9	0.011368685
169	0x3da64fd0	0.08120692
170	0xbdba6634	-0.09101525
171	0x3db3a4e8	0.08771688
172	0xbda00338	-0.07813114
173	0x3dbb8866	0.09156875
174	0x3d904f8d	0.07046423
175	0xbcda0a5f	-0.026616273
176	0xbd5a5746	-0.053305887
177	0x3be26fa5	0.0069102817
178	0x3dbe51f2	0.092929736
179	0x3e0425bb	0.12905018
180	0xbd11d212	-0.03560073
181	0xbcb31559	-0.021860765
182	0xbe4b65cd	-0.19863053
183	0xbcfbc8eb	-0.030735454
184	0x3dc20deb	0.09475311
185	0x3ceeafda	0.029136587
186	0xbd084e04	-0.033277526
187	0xbccc7599	-0.024958419
188	0xbcbc2199	-0.02296524
189	0x3df1b644	0.118023425
190	0xbdc812ad	-0.09769187
191	0xbd7b10f4	-0.061295465
192	0x3c7b992b	0.015356342
193	0xbd153c65	-0.03643455
194	0xbcb7c125	-0.022430966
195	0xbd21159a	-0.03932724
196	0x3d9d3867	0.076767735
197	0x3c7542fd	0.0149695845
198	0xbd9a4165	-0.07532004
199	0x3d0f225b	0.034944873
200	0x3dca8907	0.09889417
201	0xbd5ee30e	-0.054415755
202	0xbca8c631	-0.020602318
203	0x3d11c7c5	0.035590906
204	0x3c39d774	0.011342872
205	0x3c8db719	0.017299222
206	0xbc8f1f89	-0.017471092
207	0xbd81e75c	-0.063429564
208	0x3dc6b3f4	0.09702292
209	0xbd5b5373	-0.05354638
210	0x3d9cd2fb	0.07657429
211	0xbd495343	-0.04915167
212	0xbb905f55	-0.0044058957
213	0xbb6be3e5	-0.003599399
214	0xbda9b970	-0.082873225
215	0xbda179a1	-0.07884527
216	0x3dad83d0	0.08472407
217	0x3d1a8ee4	0.037733927
218	0x3dd348c4	0.10316613
219	0xbd6ded50	-0.058087647
220	0xbd33ede7	-0.043928053
221	0x3a0b7f81	0.0005321429
222	0xbd027c00	-0.031856537
223	0xbd94b174	-0.07260409
224	0x3cfebeec	0.031096898
225	0xbd560977	-0.05225512
226	0xbd254173	-0.04034562
227	0xbd600d6f	-0.05470031
228	0x3d687ce2	0.056759723
229	0x3dbf599f	0.09343266
230	0x3b5d1482	0.0033734147
231	0x3b7f9782	0.0039000218
232	0x3d3bfa7e	0.045893185
233	0x3d42ecf1	0.047589246
234	0xbd835162	-0.06412007
235	0x3dc9bdbc	0.09850642
236	0x3dab0a04	0.0835152
237	0x3daf4db2	0.08559741
238	0x3c75b13d	0.01499587
239	0xbd8614d4	-0.065469414
240	0xbda47556	-0.080301926
241	0x3cabfe8e	0.020995405
242	0x3cca40b3	0.024689054
243	0xbd8114ac	-0.06302771
244	0x3da325c2	0.07966186
245	0x3c95c43f	0.018282054
246	0xbc1d6ebd	-0.009608922
247	0x3d6fc81e	0.058540456
248	0xbd8f4ac5	-0.06996683
249	0x3d7aef0f	0.06126314
250	0xbca4b7d6	-0.020107191
251	0xbd6c32ed	-0.057665754
252	0xbd911d2d	-0.07085643
253	0xbd558a4d	-0.052133847
254	0x3d988726	0.074476525
255	0x3d083a04	0.033258453

lstm.bias_hh_l0 f4 [400]
0	0x3dae84a0	0.0852139
1	0x3d7857de	0.06063067
2	0x3d57f835	0.052726943
3	0x3d9b0e9a	0.075711444
4	0x3e4299e2	0.19004014
5	0x3d87c127	0.06628638
6	0x3e3dc832	0.185334
7	0x3da7f797	0.08201521
8	0x3d21e83e	0.039528124
9	0x3ec40d66	0.38291472
10	0xbc7f56f1	-0.015584693
11	0xbd8936bd	-0.066998936
12	0xbdadd71d	-0.08488295
13	0x3e15742e	0.145951
14	0x3c921b35	0.017835239
15	0x3b655a41	0.0034996422
16	0xbd33de6f	-0.0439133
17	0x3dac13f2	0.08402242
18	0x3ce07b2c	0.027402483
19	0x3c37ce81	0.011218668
20	0x3d90d0b3	0.07071056
21	0xbc932fab	-0.017967066
22	0x3d2ac5e5	0.041692633
23	0x3e316083	0.17321973
24	0x3d171187	0.03688195
25	0xbd16ad54	-0.036786392
26	0x3e002721	0.12514926
27	0xbcab77cd	-0.020931149
28	0x3dad1b51	0.08452476
29	0xbd74884e	-0.059700303
30	0x3ea16029	0.31518677
31	0x3ec8e53d	0.39237395
32	0x3d02d3d9	0.031940315
33	0xbdb6d796	-0.089278385
34	0x3e0bd82e	0.13656685
35	0x3d70af33	0.058760833
36	0xbc8cf35b	-0.017205885
37	0x3d4e427a	0.050356366
38	0x3d12d2f9	0.03584573
39	0x3e06e233	0.13172226
40	0x3d16d9f2	0.036828943
41	0x3d78a338	0.060702533
42	0x3c62be17	0.013839266
43	0x3d30f76d	0.043204714
44	0x3d9556aa	0.072919205
45	0x3cbfd478	0.023416743
46	0x3d766bee	0.060161524
47	0x3dd4168a	0.103558615
48	0x3b8f9fcd	0.0043830634
49	0xbd9d7546	-0.07688384
50	0xbd711f27	-0.0588676
51	0x3d13c419	0.036075685
52	0xbd365bc3	-0.044521105
53	0xbd2d25ca	-0.042272367
54	0xbd0fbcd7	-0.0350922
55	0x3d2776e7	0.04088488
56	0xbda247f5	-0.07923881
57	0xbd4754a3	-0.0486647
58	0x3ca444a0	0.020052254
59	0x3defa059	0.11700506
60	0xbb97d2ca	-0.0046332823
61	0x3da5dda1	0.08098913
62	0x3d438749	0.04773644
63	0xbd86a143	-0.06573727
64	0xbb7e51b6	-0.0038806028
65	0xbc986947	-0.018604888
66	0x3e0ba16c	0.13635796
67	0xbca15ede	-0.019698557
68	0xbcd37a3e	-0.025815126
69	0x3b260712	0.0025333804
70	0xbe03e80d	-0.12881489
71	0xbd62ff49	-0.05541924
72	0x3d83739a	0.064185336
73	0x3e2f7018	0.17132604
74	0x3c804b8e	0.015661027
75	0xbd8ba901	-0.06819344
76	0xbcfdb9a5	-0.030972311
77	0x3cfd226f	0.030900208
78	0x3d8dcbaf	0.06923615
79	0xbd41d84e	-0.047325425
80	0x3d80b5f1	0.062847026
81	0x3dabf831	0.08396948
82	0x3e0ecf48	0.13946259
83	0xbccb42be	-0.024812099
84	0x3db5b44f	0.08872282
85	0xbd72545d	-0.059162486
86	0x3c06973f	0.008214771
87	0x3d65a436	0.056064807
88	0x3e1a5df2	0.150749
89	0x3e4d120e	0.20026419
90	0x3d3613b5	0.044452388
91	0xbdea5bc5	-0.11443285
92	0xbaa05b58	-0.0012234254
93	0x3d07d8cd	0.03316574
94	0xbcd01a3d	-0.025403136
95	0x3d83da6d	0.06438146
96	0xbce88a8d	-0.028386379
97	0x3d9aebf0	0.07564533
98	0x3e282745	0.1642123
99	0x3db5b223	0.088718675
100	0x3e11b353	0.14228563
101	0xbb34e8a0	-0.0027604476
102	0xbad57157	-0.0016284388
103	0xbcb2f2e4	-0.021844335
104	0xbc88b5e4	-0.016688295
105	0x3d29411c	0.04132186
106	0xbdc6ebfc	-0.09712979
107	0xbdade7f9	-0.08491511
108	0x3dcaec45	0.09908346
109	0xbcf72c16	-0.030172389
110	0x3d657588	0.05602029
111	0x3d8a1328	0.06741935
112	0xbd25a277	-0.04043814
113	0x3d3b28d8	0.04569325
114	0xbd270dbc	-0.040784582
115	0xbc9a7597	-0.0188549
116	0x3d83987b	0.06425568
117	0xbd7d1dd7	-0.061796036
118	0x3bb602f9	0.0055545536
119	0x3dcc71d1	0.09982646
120	0x3d92480b	0.07142647
121	0xbcff240c	-0.031145118
122	0xbccb81b3	-0.024842119
123	0xbda99aa9	-0.08281452
124	0x3d3ee2ae	0.046602897
125	0xbdcb63af	-0.099311225
126	0x3de7e09d	0.113221385
127	0xbdcbfa5f	-0.09959864
128	0xbdaea572	-0.0852765
129	0xbc5cc4b0	-0.013474628
130	0xbe9b9c81	-0.3039284
131	0x3c907ed0	0.017638594
132	0x3c982fda	0.018577505
133	0xbd19fbf0	-0.037593782
134	0x3db4c9fc	0.08827588
135	0xbdb3de87	-0.08782678
136	0x3d3c24a6	0.04593339
137	0xbd77ab7f	-0.060466286
138	0x3bafb1ef	0.0053617875
139	0x3d3fe71f	0.046851274
140	0xbd2583db	-0.04040895
141	0xbd457979	-0.04821155
142	0x3d560269	0.052248392
143	0xbd9a8097	-0.07544058
144	0xbdade8a0	-0.08491635
145	0x3c896033	0.016769504
146	0xbdb3dc17	-0.08782213
147	0x3d3bf325	0.045886178
148	0xbb9c5b55	-0.00477163
149	0xbcdab3a9	-0.026696997
150	0x3db2c066	0.08728103
151	0x3b7359d0	0.003713239
152	0xbb3197ee	-0.0027098614
153	0xbdb308bd	-0.08741901
154	0xbd32d99e	-0.043664567
155	0xbe365e15	-0.17809327
156	0x3da4be8d	0.08044157
157	0x3d6853f5	0.056720693
158	0x3d1f2176	0.03885027
159	0x3d2534d5	0.040333588
160	0xbd941063	-0.07229688
161	0x3cc66a31	0.024220558
162	0xbd140207	-0.036134746
163	0xbc99f6ac	-0.01879438
164	0x3d8cc164	0.06872824
165	0xbd63a0eb	-0.055573385
166	0x3d154535	0.036442954
167	0x3ccaad0a	0.024740715
168	0x3b9145a0	0.004433349
169	0xbd612010	-0.054962218
170	0xbe0738c4	-0.13205248
171	0x3e0b9e49	0.136346
172	0x3db86cb8	0.090051115
173	0x3d2b140d	0.04176717
174	0xbd1d5553	-0.03841145
175	0xbdbe00d7	-0.09277504
176	0x3d83daff	0.064382546
177	0xbc227c87	-0.009917385
178	0xbd63d370	-0.055621564
179	0x3e19b5eb	0.15010802
180	0x3da8b5c6	0.082377955
181	0xbda221b6	-0.07916586
182	0xbddd9a0a	-0.10820396
183	0x3cd07807	0.025447858
184	0x3d8bd385	0.068274535
185	0xbd59503e	-0.05305504
186	0xbb4c7808	-0.0031199474
187	0xbc52998d	-0.012853992
188	0xbca65565	-0.020304391
189	0x3e623236	0.22089466
190	0xbd50ed56	-0.05100759
191	0xbdf939de	-0.121692404
192	0xbd417d1d	-0.047238458
193	0xbd21d523	-0.039509904
194	0x3d1f30b9	0.038864825
195	0x3d2a9a9c	0.041651353
196	0x3b75805f	0.0037460548
197	0x3cc9308f	0.024559287
198	0x3cdf1981	0.02723384
199	0x3d9453f5	0.07242576
200	0x3d639da8	0.055570275
201	0xbdb4af94	-0.08822551
202	0xbd80ca7e	-0.06288622
203	0xbce7dfbe	-0.02830493
204	0x3c4dfeac	0.012572926
205	0xbd6979ea	-0.057001032
206	0x3d496f29	0.049178276
207	0xbd9ad0ce	-0.075593576
208	0xbd8b0746	-0.06788497
209	0xbd904ea4	-0.070462495
210	0x3d7331b4	0.059373572
211	0x3da95591	0.082682736
212	0x3d1b2f20	0.03788674
213	0x3df179e2	0.117908254
214	0x3d958dc0	0.07302427
215	0x3ca8c69f	0.020602522
216	0xbda12d4a	-0.07869966
217	0x3ae1a973	0.0017216637
218	0x3cd55b4d	0.026044512
219	0xbda181b5	-0.07886068
220	0x3dbbc816	0.09169023
221	0xbce422e9	-0.027848678
222	0x3dcd9f2d	0.10040126
223	0x3db72050	0.0894171
224	0xbdc31386	-0.09525208
225	0xbcff3606	-0.03115369
226	0x3db308c6	0.08741908
227	0xbd91f977	-0.0712766
228	0x3d0279f2	0.031854577
229	0x3d0bd420	0.034137845
230	0xbd2a4334	-0.041567996
231	0xbcdb040a	-0.026735324
232	0xbb833758	-0.0040044
233	0xbd99662d	-0.074901916
234	0x3c333752	0.010938482
235	0xbc8679dc	-0.016415529
236	0xba8a5326	-0.0010553345
237	0x3d50e041	0.050995115
238	0xbd9949b4	-0.07484761
239	0xbd2f5fbf	-0.04281592
240	0xbd62aa44	-0.05533816
241	0x3da02f01	0.07821465
242	0x3dc526dc	0.096265525
243	0x3dc4a80e	0.096023664
244	0x3d3835a3	0.044973027
245	0x3d3162c6	0.04330709
246	0xbd25ca5f	-0.0404762
247	0x3d0439a2	0.032281525
248	0xbd1a6b5a	-0.037700035
249	0xbd2ba611	-0.04190642
250	0x3d9badfe	0.07601546
251	0xbc807bbb	-0.015684
252	0x3dad242f	0.08454167
253	0x3d3b3d57	0.045712795
254	0xbcf6325a	-0.030053306
255	0xbda34c0e	-0.07973491

attention.weight f4 [1, 100]
0	0xbf18be83	-0.596657
1	0xbcb6ff1c	-0.022338443
2	0xbec93b44	-0.3930303
3	0x3e0675f6	0.13130936
4	0xbe919c30	-0.28439474
5	0x3f48d667	0.7845215
6	0xbdbd451a	-0.09241696
7	0x3e5a4e35	0.21318896
8	0xbda876af	-0.08225762
9	0x3d959bda	0.07305117
10	0x3e376f80	0.17913628
11	0x3dcdd157	0.10049694
12	0xbc924575	-0.017855385
13	0x3c4dab98	0.012553118
14	0x3d3c22a9	0.045931492
15	0x3ec49cb4	0.38400805
16	0xbc208295	-0.009796758
17	0xbd833d63	-0.06408193
18	0xbf1738e5	-0.5907119
19	0x3e8f3d5d	0.27976504
20	0xbd9958fc	-0.074876755
21	0xbe992576	-0.29911393
22	0x3d729c98	0.05923137
23	0xbda5317e	-0.080660805
24	0xbe5190fd	-0.20465465
25	0x3e3568ea	0.17715803
26	0x3c9c2798	0.019061849
27	0xbec14e5b	-0.37755093
28	0x3f0681be	0.5254172
29	0x3dad0328	0.08447868
30	0x3ebbfc67	0.36716005
31	0xbed120d7	-0.40845367
32	0xbd944aaa	-0.072408035
33	0x3e9ce678	0.30644584
34	0x3d499b7f	0.04922056
35	0xbf115cd0	-0.56782246
36	0x3f26b305	0.6511691
37	0xbead9a70	-0.3390689
38	0xbeb9ff7f	-0.3632774
39	0xbe289de8	-0.16466486
40	0x3eb9d2c3	0.3629361
41	0xbe32fe56	-0.17479834
42	0xbdbb50c0	-0.09146261
43	0x3e08a048	0.13342392
44	0x3c4d36b8	0.012525253
45	0x3e9ecac8	0.31014085
46	0xbe4f167f	-0.20223425
47	0xbea44fd4	-0.32092154
48	0x3d8cdae5	0.06877688
49	0x3e7011e8	0.2344433
50	0xbe3bbac5	-0.18332966
51	0xbcf80e3b	-0.030280223
52	0x3e3d14dd	0.1846499
53	0xbec908cb	-0.3926452
54	0xbec16583	-0.3777276
55	0xbe49c67e	-0.19704625
56	0x3eb9aede	0.36266226
57	0x3eff62d8	0.498801
58	0x3cba67c0	0.02275455
59	0x3e996ddf	0.29966637
60	0xbcf66d9c	-0.030081563
61	0xbe5180b9	-0.2045926
62	0xbe55e17c	-0.20886797
63	0xbd5cc060	-0.0538944
64	0x3f5a688e	0.8531579
65	0x3e5e6eef	0.21722005
66	0x3f33819c	0.70119643
67	0x3e6ff9ae	0.23435089
68	0xbf015eef	-0.5053548
69	0xbf03359e	-0.5125369
70	0x3e933234	0.2874924
71	0x3ef771ae	0.48328918
72	0xbe83858b	-0.25687823
73	0x3ebf93aa	0.37417346
74	0x3e35f434	0.17768937
75	0x3cdb051a	0.026735831
76	0x3ead4fe4	0.33850014
77	0x3ee35cab	0.44406638
78	0xbdb13871	-0.086533435
79	0xbe867ea3	-0.2626849
80	0x3f10c912	0.5655681
81	0xbe15020c	-0.14551562
82	0xbe07954d	-0.13240547
83	0xbde243da	-0.11048098
84	0x3d2c17bd	0.042014826
85	0x3e0381c5	0.12842472
86	0x3e790751	0.24319197
87	0x3e012f26	0.12615642
88	0x3e56ab7b	0.20963852
89	0xbedc4c47	-0.43026945
90	0xbf0ec755	-0.55772907
91	0xbc6ed6d0	-0.0145775825
92	0xbe2b9751	-0.16756941
93	0xbefe545b	-0.49673733
94	0x3c080029	0.008300819
95	0x3e53801d	0.2065434
96	0x3ed87f83	0.42284784
97	0xbeb777ac	-0.3583349
98	0x3f051c62	0.51996434
99	0x3e7fce5a	0.2498106

fc.weight f4 [1, 100]
0	0xbcae8359	-0.021302866
1	0x3e014669	0.12624516
2	0xbc7dc129	-0.0154879475
3	0xbdd7dfe5	-0.10540751
4	0xbc82a8e4	-0.015949674
5	0xbc8e2b16	-0.01735453
6	0x3dfc3e5b	0.12316581
7	0xbde18d16	-0.11013238
8	0xbd869777	-0.065718584
9	0x3e3b2f15	0.18279679
10	0x3d3f61ed	0.04672425
11	0x3da5d609	0.080974646
12	0xbd9023d7	-0.07038086
13	0x3bf9d545	0.0076243007
14	0xbdc6b927	-0.09703284
15	0xbda5d0cc	-0.080964655
16	0xbd604a6d	-0.054758478
17	0x3dc660bb	0.096864186
18	0xbdaf0941	-0.08546687
19	0xbdd91b6c	-0.106009334
20	0x3dbbd93a	0.09172292
21	0x3d54681f	0.05185711
22	0xbde458de	-0.111497626
23	0x3e0a8841	0.13528539
24	0xbd74fa8f	-0.059809264
25	0x3ceda281	0.029008152
26	0x3d956bc0	0.07295942
27	0x3da37aa3	0.079823755
28	0x3dc0d7fe	0.09416197
29	0x3dd728b5	0.10505811
30	0x3e295400	0.1653595
31	0x3dd52a77	0.1040849
32	0x3cbe81ad	0.023255194
33	0xbd6160d1	-0.055023972
34	0x3daf6ce2	0.085656896
35	0x3d8e17e4	0.069381505
36	0xbc99cd24	-0.018774576
37	0xbdc62357	-0.09674709
38	0xbcb180e6	-0.021667909
39	0x3de2f3a2	0.110816255
40	0xbc65c189	-0.014023193
41	0x3d8bf4d5	0.068338074
42	0x3cc18b58	0.023626015
43	0x3d93405b	0.07190009
44	0xbe15e5e4	-0.14638478
45	0xbd862489	-0.06549937
46	0xbddfefe7	-0.109344296
47	0x3d228dbf	0.03968596
48	0x3e08362e	0.13301918
49	0x3d812025	0.06304959
50	0x3da6dc38	0.08147472
51	0x3dc0a05b	0.094055854
52	0x3deb72a8	0.11496478
53	0x3db97106	0.09054761
54	0x3dc96930	0.09834516
55	0x3d8431de	0.06454824
56	0xbc1e7d76	-0.009673467
57	0xbcd84bec	-0.02640339
58	0x3cb68219	0.022278832
59	0xbda1b61b	-0.07896062
60	0x3dddffe5	0.10839824
61	0xbdf583ba	-0.119880155
62	0x3d35aeeb	0.044356268
63	0xbdccd2a4	-0.10001114
64	0x3d147e6e	0.036253385
65	0x3dec3d06	0.11535077
66	0xbc2eb51d	-0.010663298
67	0x3df59bf0	0.11992633
68	0xbd543a4b	-0.051813405
69	0xbcb4d06f	-0.022072045
70	0xbd4d1203	-0.050066005
71	0x3d3c1386	0.045917057
72	0xbd361cc3	-0.044461023
73	0xbde00738	-0.10938877
74	0x3de0a12c	0.10968241
75	0xbd75eaeb	-0.06003849
76	0x3cd62eb9	0.026145326
77	0x3d43dabb	0.04781602
78	0xbd88c237	-0.066776685
79	0xbcf2f36a	-0.029657084
80	0x3cca1e92	0.02467278
81	0x3d743d8c	0.05962901
82	0xbdef930a	-0.11697967
83	0x3c4725b6	0.012154987
84	0x3d019d6b	0.031644266
85	0x3db5389a	0.088486865
86	0xbd9063db	-0.07050296
87	0xbdabc25b	-0.0838668
88	0x3d9ea2c5	0.077458896
89	0xbe0eb4f2	-0.13936213
90	0xbd030e27	-0.03199592
91	0x3d9ea9c1	0.07747222
92	0xbdf95e70	-0.12176216
93	0x3db4a729	0.08820946
94	0xbdbd3734	-0.09239045
95	0xbd80f274	-0.06296244
96	0xbddac28f	-0.1068164
97	0xbd9f705a	-0.07785101
98	0x3d833fdf	0.06408667
99	0xbd429a52	-0.047510453
